src/06_hw/lunar_lander_checkpoint.pth (torch, 869006 bytes, 18 tensors)

network.0.weight f4 [256, 8]
000000 6b 42 26 3d 54 7c 65 3f 88 ec 32 3e d1 24 1c bf
       0.040590685 0.89642835 0.17473042 -0.6099368
000010 94 49 b3 3e 1c 77 f6 be 1e 55 6a be 5c 73 03 3f
       0.35017073 -0.48137748 -0.22884032 0.513479
000020 c6 5f d8 be 84 22 8d 3e 7c 31 0f 3f d7 d9 15 bf
       -0.4226057 0.27565396 0.5593488 -0.5853552
000030 55 71 2c bf fd 58 0d 3f 19 1d 8f 3e 18 30 0c 3f
       -0.6736043 0.5521391 0.27951887 0.54760885
000040 80 b7 eb be 9e 2e c5 3a e0 19 3b bf 13 b7 a1 bd
       -0.46038437 0.00150438 -0.7308636 -0.07896247
000050 6b 92 39 bf 14 31 1f bf 04 eb 1f bf 62 0b f0 bd
       -0.7248904 -0.6218426 -0.6246798 -0.11720921
000060 b4 b0 a7 bd dc c4 b2 3e 23 78 53 3d 6e 0f ac 3d
       -0.08188 0.34915817 0.051628243 0.084013805
000070 64 84 86 3e 10 2e 03 3e b1 61 14 3f 86 aa 50 bf
       0.2627288 0.1281054 0.57961565 -0.815102
000080 32 e2 71 3f 1b aa 06 be 2e e7 6c 3e 83 da c4 be
       0.9448577 -0.13150828 0.23135063 -0.3844796
000090 ae 93 92 be 2a d9 03 3f 77 d2 ac be 51 a4 12 3f
       -0.28628296 0.5150324 -0.33754322 0.57281977
0000a0 44 12 8a 3d b6 47 66 be 61 e1 92 be 50 4f 70 bf
       0.06741765 -0.22488293 -0.28687575 -0.9387102
0000b0 af 72 1c 3e 51 6e 04 be cb 01 47 bf b9 5b 7c be
       0.15278123 -0.12932707 -0.7773711 -0.24644364
0000c0 88 66 a4 be 08 ca 26 c0 2f 4e 7d be 7c 18 e5 3d
       -0.32109475 -2.606081 -0.24736856 0.11186311
0000d0 74 6e 11 3f d8 ac e5 3e 21 16 87 3e aa 5d 76 3e
       0.56809163 0.44858432 0.2638407 0.24059168
0000e0 65 0b 82 be db bf 95 3e 01 05 51 bf ee 4d 0f 3f
       -0.25399318 0.29247937 -0.8164826 0.55978286
0000f0 98 ac f9 3e 29 91 c0 3e c4 aa 86 3e f6 db 18 bf
       0.4876449 0.37610748 0.2630216 -0.59710634
000100 f4 68 81 be c0 1a 51 bf b6 30 94 3e 5e c9 4a bf
       -0.25275385 -0.8168144 0.28943413 -0.7921351
000110 47 64 69 bf fd 0c 36 be d7 e9 30 3e ce 38 ae bb
       -0.91168636 -0.17778392 0.17276703 -0.0053168302
000120 d2 b6 5d 3e ef 6b 3e be bf 56 60 3c f3 ae 14 be
       0.21651772 -0.18595861 0.013692557 -0.14519863
000130 f6 d6 22 3f 60 7b aa 3d 40 6c 8e 3e 6e 55 0b be
       0.63609254 0.08324313 0.27816963 -0.13606808
000140 15 d7 fb be 9a 63 84 be ea be ca bd 04 f1 55 bf
       -0.49187532 -0.2585724 -0.09899695 -0.83570886
000150 3a 14 fa bd af a0 82 be 5d f6 9c bd 8a 9f 04 3f
       -0.12210889 -0.25513217 -0.076641776 0.5180594
000160 cd ed 9a 3e 6a d1 0f 3e f6 65 12 be 5b ab 11 3f
       0.30259553 0.14044729 -0.14296708 0.5690209
000170 d6 4b f3 3c d3 d6 9a 3e c0 a2 31 bf 94 5d 2f be
       0.029699247 0.30242023 -0.6938896 -0.17125541
000180 3d df db be 9d 64 26 bf be 80 38 bf 10 06 46 3e
       -0.42943755 -0.64997274 -0.72071445 0.1933825
000190 46 b5 17 bf f1 06 28 3e e8 ae 36 3f 31 2f f5 3e
       -0.59260976 0.16408898 0.71360636 0.47887567
0001a0 b7 82 2f bf 34 3f dc 3d 9c 58 79 3e 42 51 83 be
       -0.6855883 0.107542425 0.24350208 -0.25647932
0001b0 32 5f ce be 46 22 41 bf 03 c9 2f be 95 ee 30 3f
       -0.40307003 -0.7544292 -0.17166524 0.6911405
0001c0 3f dc a9 3f b7 16 0b c0 36 04 27 3f 60 cd 31 bf
       1.3270339 -2.1732614 0.652408 -0.69454
0001d0 27 f9 a1 3c 05 14 fa be b1 20 08 3f 96 37 e9 3e
       0.019772125 -0.488434 0.53174883 0.4555022
0001e0 cc 85 be 3d 1d 9e 16 bf fb 8e 17 3f a2 d9 10 bf
       0.093028635 -0.5883501 0.59202546 -0.5658208
0001f0 5b d7 ff bd ff bb d8 be 3a da e6 3e 0c d5 88 3e
       -0.12492248 -0.4233093 0.4508837 0.26725042
000200 7f af 13 3f 39 a3 ce 3e b6 03 eb bc f6 c5 83 bf
       0.5768966 0.40358904 -0.028688293 -1.0294788
000210 d4 ae d9 be b1 27 90 be 74 22 a7 be a8 83 00 3e
       -0.42516196 -0.28155282 -0.32643473 0.12550223
000220 8e 61 bb 3e 02 a6 89 bd 89 52 1e bd 4f 18 fd bd
       0.36597866 -0.067211166 -0.03865293 -0.12358152
000230 55 8c eb 3e 64 de 83 3e fa 1d f9 3e 04 b7 cb be
       0.46005502 0.25755608 0.48655683 -0.39788067
000240 34 e0 da be 14 16 44 3f 50 21 6a 3f e5 eb 7e bf
       -0.42749178 0.7659619 0.9145708 -0.99578696
000250 5f b6 fb be 65 5a 6f be cb 0c d3 3d 90 63 79 be
       -0.49162576 -0.23374327 0.103051744 -0.24354386
000260 c6 e6 a9 bf 24 12 65 3e 4e 27 23 3f b4 5e 6b 3d
       -1.3273551 0.22370201 0.6373185 0.057463363
000270 64 2b a6 be dd 4f 1d 3e 44 71 33 bd cb ed 04 bf
       -0.3245498 0.15362497 -0.04380919 -0.51925343
000280 bd 27 3d 3e 1d 44 c6 3e d1 68 21 be b9 b6 00 bf
       0.1847219 0.3872384 -0.1576264 -0.5027881
000290 ef 50 07 3f 4a 41 0a bf d4 c3 63 be e0 35 ac bd
       0.5285787 -0.54005873 -0.22242671 -0.08408713
0002a0 01 8f 0a 3f 33 89 98 3e a6 24 33 3e fb b5 32 be
       0.54124457 0.29792175 0.17494449 -0.17452233
0002b0 84 f8 22 3f be c1 2e be 08 92 0b be 34 06 db bc
       0.63660455 -0.17066094 -0.13629925 -0.026736356
0002c0 18 41 00 bf c4 44 78 be fa c5 4a 3f b4 bc c2 be
       -0.50099325 -0.24244982 0.7920834 -0.38034594
0002d0 a5 0a 83 bd e6 de 14 3f 9b 74 c8 be 09 b7 c4 bb
       -0.06398515 0.58152616 -0.39151463 -0.006003265
0002e0 28 eb e1 bd 3b fb bf 3d 85 f0 23 bc ea e9 42 bf
       -0.110311806 0.0937409 -0.010006075 -0.76138175
0002f0 5b 1b cd be 72 39 43 be 46 3d f8 bd 6a 8b c8 3e
       -0.40059933 -0.19064882 -0.12121062 0.39168864
000300 13 bd 19 bf 54 dc 85 bf 78 f6 89 be 61 df 4f bf
       -0.6005413 -1.0457864 -0.26945853 -0.81200224
000310 90 b9 4c 3f 0a 0a 8e 3e 56 b9 0d bf cd 8b 90 bd
       0.79970646 0.27742034 -0.55360925 -0.07057915
000320 3b d7 1a 3f 4f b4 db be fa 30 d7 be 2f 64 2d 3f
       0.60484666 -0.42911002 -0.42029554 0.67730993
000330 a1 bb b9 3c 22 ff 22 3f 6b 7e 21 3f e2 88 9c bd
       0.022672476 0.6367055 0.63083524 -0.07643296
000340 ef e7 ce 3e bf 3c 8c bf 71 9e f8 3e 77 c8 0f bf
       0.40411326 -1.0956038 0.4855838 -0.5616526
000350 89 26 91 3e 80 e3 d2 3e c4 94 a1 be 84 c8 82 be
       0.28349712 0.41189194 -0.31558812 -0.25543606
000360 d7 02 45 3e 1d e1 61 3f b3 d8 b4 be a7 1a 7e 3f
       0.19239365 0.8823412 -0.35321578 0.9925942
000370 e9 30 6b 3d d8 de b9 bc 55 1d e5 3e 6a c8 20 be
       0.05741969 -0.022689268 0.4474894 -0.15701452
000380 f0 30 25 bf 12 5d c6 3e 40 eb 1d 3f c4 c8 f4 3e
       -0.645278 0.38742882 0.6168709 0.47809422
000390 41 16 b7 3e 16 c2 98 3e 2a 55 04 bd 94 77 14 3f
       0.35759166 0.29835576 -0.03230778 0.5799496
0003a0 4a 00 d2 ba d5 ba 29 3f d7 6b 12 3e 57 1d 2b 3f
       -0.0016021815 0.6630071 0.1429895 0.66841644
0003b0 9c 30 84 be 1a 72 50 bf f6 41 0e bd 80 05 d8 be
       -0.25818336 -0.81424105 -0.034730874 -0.42191696
0003c0 54 ac af 3e 4a 41 8b be ff 6f f8 be 79 da 1e 3e
       0.34311163 -0.2719825 -0.48522946 0.15513028
0003d0 c5 fa 04 3f eb ea 93 3e 6d 44 79 3c ae 67 88 bf
       0.51945144 0.28890166 0.015214068 -1.065664
0003e0 07 a6 09 3e 4e e3 ac 3e 63 a4 68 be 9c ce 11 be
       0.1344224 0.3376717 -0.22718959 -0.14238971
0003f0 dd ed 80 be 47 cd 82 bf 24 77 c3 be 1b 01 95 3e
       -0.25181475 -1.0218896 -0.38176835 0.29102406

network.0.bias f4 [256]
000000 04 6e 63 be 2f 15 04 3e dd ff f8 bd 62 9b 20 3f
       -0.22209936 0.12898706 -0.12158177 0.62737095
000010 73 38 4f 3e 14 38 02 3e 21 22 57 3d 95 c0 44 3e
       0.20236377 0.12716705 0.052522782 0.19214089
000020 96 2b bf 3e 58 7f 02 3f 48 35 a2 be 81 d8 3b 3f
       0.3733794 0.5097556 -0.31681275 0.73377234
000030 06 88 30 3e f5 c8 c1 be a0 95 4d 3c ab ae 92 3e
       0.17239389 -0.3784863 0.01254788 0.28648886
000040 6e 9f ba 3e e4 7a d0 3e 83 4f a4 3e 32 e8 ad bd
       0.3644976 0.40718758 0.32091913 -0.08491553
000050 b3 bc a3 3e 37 6d 1b 3f 64 ed d8 3e 01 51 e8 be
       0.31979904 0.60713524 0.42368615 -0.453743
000060 c0 50 1b bf 2e eb 17 be b6 a6 02 bf be 19 84 3f
       -0.6067009 -0.14835808 -0.5103563 1.0320356
000070 42 83 0b 3f 6b a5 ed 3e 9e 81 0f 3f 85 d9 d4 3d
       0.5449716 0.46415266 0.56057155 0.10393051
000080 06 d8 73 3d e5 a9 6d be ee 4f 9e 3e e1 2f 90 3e
       0.059532188 -0.23209341 0.30920357 0.2816153
000090 10 2a a8 3e 50 01 70 3e 66 82 d1 bd 50 57 9a 3e
       0.3284459 0.23438 -0.1022995 0.3014474
0000a0 4a 54 60 3e c4 1b b1 3e ed 00 6c 3c 1a d2 bd bd
       0.21907154 0.34591496 0.014404518 -0.09268589
0000b0 13 53 ff be 70 19 67 bc 66 6e 00 bf 75 42 86 3d
       -0.49868068 -0.014105186 -0.50168455 0.065556444
0000c0 c0 8a 14 3f 5c e8 6d be 91 d3 c1 be 2b 88 2a 3f
       0.58024216 -0.2323317 -0.37856725 0.66614026
0000d0 ad 5f 92 3e 8d bf f9 3e 58 72 16 bf 10 a8 55 3f
       0.2858862 0.48778954 -0.58768225 0.8345957
0000e0 b3 1a 22 3e d0 a3 1e bd f9 31 a3 be 10 7f 2e 3f
       0.15830497 -0.038730443 -0.31874064 0.6816263
0000f0 76 ea 28 be 44 22 3c 3f 61 d8 58 3c f1 a2 24 be
       -0.1649569 0.73489785 0.0132351825 -0.16077782
000100 b7 e8 84 3e 95 c2 10 3f 86 ed 14 3f 6a 4b 89 3e
       0.25958797 0.5654691 0.5817493 0.2681535
000110 8e 6b 3c 3e 56 1f 05 3f 55 76 e8 bd a5 c7 64 3e
       0.18400404 0.5200094 -0.11350695 0.22341783
000120 e4 5e 8b be c9 85 a2 be b7 08 3e 3e 4b b8 eb be
       -0.27220833 -0.31742695 0.18558012 -0.46039042
000130 79 c0 de be 14 c2 ec 3e d0 96 9a be d2 e5 1d be
       -0.4350622 0.4624182 -0.30193186 -0.154197
000140 5f 20 9f 3d 10 a4 cc be aa ca ab be 33 eb 2c 3e
       0.07769846 -0.3996892 -0.33553058 0.16886596
000150 bf 1b e4 3e 25 2b 18 3f 1f 16 4b 3f 82 6c f7 3e
       0.4455242 0.59440833 0.7933063 0.48324972
000160 f8 3b 45 3f 51 0a 36 3f f6 fe dd be da 45 5b 3d
       0.7704463 0.7110949 -0.43358582 0.053533413
000170 f9 1a 3c be e9 c6 00 3e a6 92 07 3f 82 20 28 be
       -0.18369664 0.12575878 0.5295814 -0.16418651
000180 57 3d 04 bf fa 30 0c bc d9 d8 38 3d 40 65 06 3f
       -0.516561 -0.008556599 0.045128677 0.52498245
000190 7e 97 b5 be 65 43 e2 be e3 b5 9b be 29 a1 e7 3e
       -0.35467142 -0.44192043 -0.30412206 0.45240143
0001a0 07 1a 0d bf cd 81 97 3e 65 c2 76 3f f8 04 cd 3e
       -0.5511784 0.29591218 0.9639037 0.40042853
0001b0 b1 b1 f8 3e 64 0f 21 bf c9 76 45 be 66 d1 88 3d
       0.48573068 -0.6291411 -0.19283594 0.066805646
0001c0 83 6a 09 3e c6 23 8e 3e b1 34 64 bb 77 9c 45 3e
       0.13419537 0.27761668 -0.0034821446 0.19297968
0001d0 47 bd 02 3f 32 ac b1 3e 7e 54 61 3f f8 f8 b8 3e
       0.51070064 0.34701687 0.8801955 0.36127448
0001e0 e4 ea 2b 3f 4e 29 33 3f 0d 9e 07 3c 5a 0f 9a 3e
       0.6715529 0.699849 0.008277428 0.30089837
0001f0 45 e1 5e be ed 6d 55 be a3 5b 0d 3f c5 7f 1a 3f
       -0.21765621 -0.20842715 0.5521795 0.6035121
000200 ff f9 13 3f bb 4d 63 be 4d af da bd aa 39 b6 3e
       0.5780334 -0.2219762 -0.10677967 0.3559087
000210 17 fa 0b 3f 30 3d 5f bc 9b 78 33 be b3 99 54 3a
       0.5467848 -0.013625428 -0.17526476 0.0008110061
000220 c0 bf 85 3e b2 d6 b3 3e 2b 82 3c 3f b4 8e 58 3e
       0.26122856 0.35124737 0.7363612 0.21148187
000230 b3 ae 67 be 90 5e 6f 3d 77 bd 62 3c cb 58 e4 3e
       -0.22625236 0.05843979 0.013839117 0.44598994
000240 dd 71 ad bc f3 37 98 be 2f c1 55 3e 81 07 f9 3e
       -0.021172458 -0.29730186 0.20874475 0.48638538
000250 39 b3 65 be fc 09 35 bf c2 c2 87 3b b0 62 83 3f
       -0.2243165 -0.7071836 0.00414309 1.0264492
000260 ba 29 3d be 29 cc 03 3f 43 fc e1 3e 35 67 b6 be
       -0.18472949 0.514834 0.44137773 -0.35625616
000270 1d dc 07 bf ab 1e 10 3f 85 7a 15 3f 84 d9 78 bf
       -0.5307024 0.56296796 0.58390075 -0.972069
000280 94 a6 bc be b4 1c 47 3e 6f 6d 04 3e 38 e3 1d bf
       -0.3684584 0.19444543 0.1293237 -0.61674833
000290 2b a7 47 be 5c d7 14 3e 2d be 0c 3f 6a 83 ce be
       -0.19497363 0.14535278 0.54977685 -0.40334636
0002a0 ed 57 af 3e e6 2d e1 3e b2 a5 22 3f e6 24 67 be
       0.3424677 0.4398033 0.6353408 -0.2257267
0002b0 01 34 cf be 8b 2e 0c 3f 9c b9 d5 3e 97 a0 16 3d
       -0.40469363 0.5475852 0.4174317 0.036774244
0002c0 0a b6 84 bd bf 81 ac 3e 4d f8 55 bf aa 60 c1 be
       -0.06480034 0.33692738 -0.83582 -0.3776906
0002d0 26 50 cf 3e 31 b2 04 bf 23 c9 f1 3d ad 27 03 3f
       0.40490836 -0.518344 0.11805942 0.51232415
0002e0 72 00 7c be fe 82 50 3e 5a 3d ed 3d 31 38 a0 be
       -0.24609545 0.2036247 0.115839675 -0.3129287
0002f0 e4 1a 13 be 6e 43 aa 3e 80 76 4e 3f cb 12 91 3d
       -0.14365727 0.3325457 0.80649567 0.070836626
000300 9a 43 19 bf b6 93 60 be 3b 5a f0 3e 5c 0c ac bb
       -0.59868777 -0.21931347 0.4694384 -0.005250497
000310 5f 38 d5 3e 84 6c 92 bd 6a 51 af 3e 91 37 1c 3f
       0.4164457 -0.07149604 0.34241802 0.6102229
000320 6c 2a 45 3e 6e a9 a7 bd e7 62 40 3f 1d 1f 76 be
       0.19254464 -0.08186613 0.75150913 -0.24035306
000330 c7 89 4e 3f b3 12 0e 3a d0 92 b4 be f5 25 15 3f
       0.8067898 0.00054196565 -0.3526826 0.5826104
000340 31 12 b2 3e ae fb 21 3f c3 9f 01 be 3f bc 23 3f
       0.34779504 0.6327466 -0.126586 0.63959116
000350 e3 6a f5 3d 9f ff 79 3e f7 4d a7 3e 75 5e 48 3d
       0.11983278 0.24413918 0.3267667 0.048918206
000360 fd af 34 3f 80 d4 f3 3c af 4c cc 3d 4a e2 0d 3f
       0.70581037 0.029764414 0.09975564 0.55423415
000370 d5 bb 15 3f c4 95 3e 3f 84 8e 25 3f b2 81 dc 3e
       0.58489734 0.74447274 0.64670587 0.430677
000380 23 2c da 3e 7e 7c b1 3e 0c d2 02 3f 62 9a 03 3f
       0.426118 0.34665293 0.51101756 0.51407444
000390 2b da 02 bf d0 21 ac 3c b9 f4 92 3f cc 01 a6 be
       -0.5111415 0.021012217 1.1480933 -0.32423246
0003a0 f5 54 72 3d 1d 8d 86 3e ca fb 86 3d 55 13 c8 3e
       0.059163053 0.26279536 0.06590994 0.3907725
0003b0 99 a9 98 be 55 31 7d 3c 81 a5 bf bc 04 65 70 bd
       -0.29816893 0.015453656 -0.023394348 -0.058690086
0003c0 f1 5c a6 3c dc c0 7a 3e aa e3 49 3d bd 13 ab be
       0.02030799 0.24487633 0.049289383 -0.33413497
0003d0 3e 4b 9b 3f 11 cf 6a 3d bd c2 b4 be 0a 69 2c be
       1.2132337 0.05732638 -0.35304824 -0.16836944
0003e0 c6 43 57 3e b9 b1 8b bc e4 8b 89 bc 19 2e df be
       0.21021947 -0.017052518 -0.016790338 -0.43589857
0003f0 25 2b 3d 3d 27 f7 5e 3d 48 c1 ac 3d 48 1f fa 3e
       0.046183724 0.05443492 0.08435303 0.4885199

network.2.weight f4 [256, 256]
000000 67 06 ee 3d cb 50 9e 3e 18 09 82 3f f3 61 5e 3d
       0.11622315 0.30921015 1.0159025 0.05429263
000010 2b 6a d1 3e 70 9c 8f 3b 8f c1 8b bf b0 84 46 bf
       0.40901312 0.0043826625 -1.0918444 -0.77546215
000020 aa e3 93 3e 3f 2c 6b bd ae 62 0c 3d 44 7e cf bf
       0.2888463 -0.057415243 0.034273796 -1.6210408
000030 05 d2 10 bf 6a cf 8b 3f f3 e3 b4 bd b1 1a b5 be
       -0.56570464 1.0922673 -0.0883254 -0.35371926
000040 8e 6f 9a 3d ba 88 a3 bc 32 a3 9c 3e ee 61 22 3d
       0.075408086 -0.019962657 0.30593258 0.039644174
000050 16 cf 8f be 12 cd 55 3d f8 ee ea 3e 01 ab 3c 3e
       -0.28087682 0.052197523 0.45885444 0.18424608
000060 58 d0 ad bf 47 c8 0f bc 17 46 b3 bb 8e 4b 33 be
       -1.3579206 -0.008775777 -0.005471002 -0.1750929
000070 e7 9e fa bd ec ae 85 bf d3 68 15 bd 91 30 40 bf
       -0.122373395 -1.0444007 -0.03647692 -0.75074106
000080 4e 17 12 3e 7b 4b 23 3c 6d b4 8f bd 0e 75 86 3d
       0.14266703 0.009966726 -0.07016835 0.06565295
000090 86 0c 2e 3f 33 f7 51 be ee 7a 4c be a2 49 97 be
       0.6798786 -0.20504455 -0.19968769 -0.29548365
0000a0 c9 24 18 3f 5c 3d 9a bf 4b cb 11 be b6 7e 28 3e
       0.5943113 -1.2049975 -0.14237706 0.16454586
0000b0 9f c8 8d 3f 7b 15 7c bf a6 d7 47 bd 45 92 04 3f
       1.107685 -0.98470277 -0.048789643 0.5178569
0000c0 50 fa c4 3e 12 68 29 bf 21 aa c8 3d 60 71 3b be
       0.38472223 -0.66174424 0.097980745 -0.18304968
0000d0 b0 60 c4 3e f0 04 ca bf 4b 72 33 3f 7d 0b 85 be
       0.38355017 -1.5782757 0.7009627 -0.25985327
0000e0 94 38 43 3e 83 15 94 3e 4d 9d 87 be 37 d3 6d be
       0.19064552 0.28922662 -0.26487198 -0.23225103
0000f0 57 3a 3f 3f 72 e2 60 bf 47 ee ee 3c 10 f9 86 3e
       0.74698395 -0.8784553 0.029166354 0.26361895
000100 3d e3 59 3e 79 a6 20 be f4 6f d8 3e ef 0b b3 bf
       0.21278091 -0.15688504 0.42272913 -1.3988017
000110 af 71 79 be c0 90 79 3e eb f8 89 bf 7e 90 69 3f
       -0.24359773 0.24371624 -1.0779089 0.912361
000120 0c bc 6e bf 9b 1d 78 bf e7 a4 0f 3f 44 ed c8 bf
       -0.93255687 -0.96920174 0.56110996 -1.5697408
000130 7b 7a 4c 3f 4e c4 54 3e 11 cb 98 3d 2c 62 6c bf
       0.7987439 0.2077801 0.07460607 -0.923373
000140 c0 1c a4 3d 1a 78 01 c0 37 94 5e 3e 49 6c 75 be
       0.08013296 -2.0229554 0.21736227 -0.23967089
000150 06 d8 bd 3d e4 d3 ba 3d 8d 8b a5 bf c3 59 b6 3d
       0.09269719 0.09122446 -1.2933213 0.089038394
000160 84 bc 9c be 8e 51 a5 bd c0 3b c3 3f 64 06 86 bf
       -0.30612576 -0.08072196 1.5252609 -1.04707
000170 c9 65 89 3e 95 13 5d bd f6 f1 82 3d af a2 52 bf
       0.26835468 -0.053973753 0.06393807 -0.82279485
000180 29 d0 1a 3d 67 c0 98 be 2b e4 8b bd df 77 82 3c
       0.037796173 -0.2983429 -0.06830629 0.0159263
000190 85 99 41 bf 75 26 9e bf 31 43 13 3e d2 4d 2a bf
       -0.7562488 -1.2355486 0.143811 -0.66524994
0001a0 24 2d b4 3c 9a 4b 3c 3e 4f 6b 7b 3d 05 62 29 3e
       0.021994181 0.18388215 0.061381634 0.16541298
0001b0 42 38 0d 3e 1d a5 a8 be b1 28 de be 5c 72 4d be
       0.13790992 -0.3293847 -0.4339042 -0.20063156
0001c0 49 ec 4b bf 3b 8a 2e bf df ad c6 be 1a 28 49 3e
       -0.7965742 -0.6817967 -0.38804528 0.19644204
0001d0 6d 31 94 3e e2 8b 60 3e 51 b6 71 be 30 35 be 3d
       0.2894396 0.21928361 -0.23604704 0.092874885
0001e0 5c 5e 97 be 90 28 09 3e ee 80 54 bf 3b 9c d4 bc
       -0.29564178 0.1339438 -0.8300923 -0.025953403
0001f0 d2 4f a7 bf 21 82 83 bf 8f 9e 74 be e2 7e a4 bf
       -1.3071234 -1.0274087 -0.2388861 -1.2851222
000200 85 21 c8 be 7c 2b 27 3f d5 4d a4 be 8d 03 17 3f
       -0.39088073 0.65300727 -0.3209063 0.58989793
000210 f2 c6 c1 3e 08 79 16 bf dd f4 36 be 34 4a 5c 3e
       0.37847096 -0.5877843 -0.17866845 0.21512681
000220 df 3c 68 be 39 5a 73 bf fb a5 84 bd 19 92 bb bd
       -0.2267947 -0.95059544 -0.06476971 -0.09158725
000230 19 19 4b 3f 9f 65 64 3f 3b 59 04 bf d2 c0 b1 3e
       0.7933517 0.8921756 -0.51698655 0.34717423
000240 93 95 4a 3e 39 29 ad bf a8 16 5b bf 62 1d cc 3d
       0.1978362 -1.3528205 -0.85581446 0.09966542
000250 a9 ff ac be 28 20 1a c0 90 cf 12 3f 87 9f e5 be
       -0.33788803 -2.4082127 0.57347965 -0.44848272
000260 9a 3e 9e 3f 64 99 48 be b6 76 6b 3e 27 48 11 3e
       1.2362854 -0.19589764 0.22994503 0.1418768
000270 86 9f 82 bf 18 85 89 3e 6f 0b 6d be 1e 26 b7 bf
       -1.0204933 0.26859355 -0.23148893 -1.4308507
000280 82 cb 9b bc fe a2 ed be 2a 51 fb 3e 2d 4b 5a bf
       -0.019017939 -0.46413416 0.4908536 -0.8527096
000290 5d a0 ed 3e 32 50 17 3f 2b a5 7d 3e 26 fe 67 3f
       0.4641141 0.59106743 0.24770038 0.90622175
0002a0 b7 48 dc bd 83 ac b9 3e e7 2a ce 3e d9 83 18 3e
       -0.10756057 0.36264428 0.40267107 0.14894046
0002b0 58 a5 ed bd 2b 62 20 bf 56 1a ed 3e 33 00 49 3e
       -0.116038024 -0.6264979 0.46309155 0.19628982
0002c0 24 64 88 be a4 43 e3 be a4 5d 9a bf d5 21 ca be
       -0.266389 -0.44387543 -1.2059827 -0.39478937
0002d0 fe 98 29 be c9 17 4d bd 13 42 7c 3f e3 7b a9 3e
       -0.16562268 -0.05007151 0.9853832 0.3310233
0002e0 74 49 a1 bc 81 92 cb 3e 19 13 07 bf 74 cb 80 ba
       -0.019688345 0.3976021 -0.52763516 -0.0009826259
0002f0 5e 4a 9d be 7c 0b a0 3e 66 e1 a8 bd 1e b2 1f 3f
       -0.307208 0.31258762 -0.08246116 0.6238116
000300 82 f0 a8 be e5 af 5b 3f 23 52 8d 3e 23 b1 14 3f
       -0.32995993 0.8581527 0.27601728 0.5808279
000310 dd b5 0e bf cb 7b 00 bf a9 c5 4f be 68 3c 24 3e
       -0.5574625 -0.50188893 -0.20290245 0.16038668
000320 71 a5 10 be 12 06 60 3f fb a1 3a 3e 2d 3d f4 bd
       -0.14125611 0.8750926 0.18225853 -0.11925731
000330 54 08 02 bf 54 e6 ab 3e 16 92 b4 3e a8 a1 6c be
       -0.5079396 0.33574164 0.35267705 -0.23108542
000340 b4 7d 88 3d 5b 82 10 3e 0f 8e 7e 3f 4d cb 0f bf
       0.06664601 0.14112227 0.99435514 -0.5616959
000350 61 55 22 3f f3 1f 68 3f 02 77 87 3e 4d a9 9c be
       0.6341153 0.9067375 0.26457983 -0.30597916
000360 b9 96 25 bf cf 24 64 3e ff f9 eb be 35 54 d5 bf
       -0.6468311 0.22279666 -0.4608917 -1.6666323
000370 3f 1d 0d bf 03 91 25 bf 1c 04 ca bf bd b7 b7 be
       -0.5512275 -0.64674395 -1.5782504 -0.3588237
000380 21 7a 87 3e 37 ce 40 bf 10 c0 3b 3d 47 a0 25 3f
       0.26460364 -0.7531466 0.045837462 0.6469769
000390 87 a9 e4 3d 62 ca d6 be de 76 7f be b0 9a 56 3f
       0.11165147 -0.4195128 -0.24947688 0.83829784
0003a0 09 f6 e6 3d e1 c6 0c 3e 8d cc 1b 3f 79 29 68 3d
       0.11277396 0.13747741 0.60858995 0.056680176
0003b0 1f 6a 4a bc 39 5a ad 3d 55 ff 0b c0 ca 8d 62 3f
       -0.012354403 0.08464474 -2.1874592 0.884976
0003c0 6f c1 f4 bf a0 9e bb 3e 73 d9 8d 3f 42 aa 55 3e
       -1.9121531 0.3664446 1.1081985 0.2086573
0003d0 a5 ca a1 be 72 9d d2 bd d9 0b 89 bf ee d0 26 3d
       -0.31599918 -0.102839366 -1.0706741 0.040726595
0003e0 0f b8 16 bd b2 da ef 3d 53 3c 7a 3e df 0e b7 bc
       -0.036796626 0.11711635 0.24437074 -0.022345958
0003f0 2e 5f 09 3f b5 3e 08 3f c0 c2 3d 3f 56 24 5b 3e
       0.5366086 0.53220683 0.7412529 0.2140058

network.2.bias f4 [256]
000000 19 43 05 3d 4b ac 3a 3e ae d7 13 3d 34 ae c6 3e
       0.032534692 0.18229787 0.03609436 0.3880478
000010 92 11 99 bc e6 11 b1 bd 5c a0 86 3e b5 e9 96 3e
       -0.018685136 -0.08645992 0.2629422 0.2947518
000020 ea 20 82 bd 5b 3c f1 bc 60 09 d0 bd 90 7b b5 3c
       -0.06353934 -0.029447725 -0.10158038 0.022153646
000030 af 7b 46 be 80 f4 96 3e 35 bf 8e 3e 17 a9 bd bc
       -0.19383119 0.29483414 0.27880254 -0.023151917
000040 b8 49 d6 3d 7d 84 79 3e fc b8 33 be 8e c6 08 be
       0.104632795 0.24366947 -0.17551035 -0.13356993
000050 49 9b 3f bd 52 11 9f bd d6 9c 1d 3e f0 66 6f bc
       -0.04677895 -0.077669755 0.1539186 -0.014611945
000060 bb c3 7c bd 34 5f 19 be 44 d1 5f 3e 21 6c ed 3c
       -0.0617101 -0.14977723 0.21857172 0.028982224
000070 20 1f 0c 3e fe fe c6 3c 8c 88 d8 bd 1a c2 b4 3e
       0.13683748 0.024291512 -0.10572919 0.35304338
000080 40 2e 12 be 26 ab 24 3d 25 9e d5 bb dd c2 16 bc
       -0.14275455 0.040202282 -0.0065190964 -0.009201732
000090 40 0c 50 be 36 07 cc bc 0a d9 fd bc e8 5b 8e 3c
       -0.20317173 -0.024905782 -0.030987281 0.017377809
0000a0 dc b5 1c 3e 04 a9 1d 3d dc 53 59 bd b2 ac 23 3e
       0.15303749 0.038491264 -0.05305849 0.15983847
0000b0 78 1f cd bc eb 7d 6c 3d 5f d5 20 3d 01 0d 88 bd
       -0.02503942 0.057737272 0.039265987 -0.06643105
0000c0 25 1b 5a 3e 12 8c 2b bd 60 4d a3 be fb b1 ce 3c
       0.21299417 -0.04188163 -0.3189497 0.025231352
0000d0 a4 81 21 bd 4b f9 e9 bd 38 99 bc 3e 13 24 09 bd
       -0.039430276 -0.11424502 0.36835647 -0.03348167
0000e0 83 0a ff bd 10 37 77 bd fd c7 1b 3e c9 fd 56 3d
       -0.12453177 -0.060355246 0.15213008 0.052488122
0000f0 df 82 f0 3c 24 1f 13 bd ff 2d 86 be 82 3d 8c 3d
       0.02935928 -0.03591837 -0.26206967 0.06847669
000100 20 17 27 be 91 47 48 3e a5 f1 87 3e 15 c1 ec bd
       -0.16317415 0.1955855 0.26551548 -0.11560265
000110 17 79 4a 3d 90 cf 02 be e3 c3 ba bd 2a e7 19 3d
       0.049431887 -0.12774491 -0.09119394 0.03757397
000120 1f 2f 1f 3e d2 45 fc 3c b4 fc 0d 3e aa 90 77 3e
       0.15545319 0.030795012 0.1386593 0.24176279
000130 8c 05 15 3b 23 c1 2e bc 20 7d 94 bd 85 a5 88 3e
       0.0022738902 -0.010666165 -0.07250428 0.2668878
000140 17 db 1a be 2a 9f f2 3d b0 b6 3c 3e 1b ff 8c 3e
       -0.15122639 0.118467644 0.18429065 0.2753838
000150 e5 1e 5f 3e 56 46 7b bd 08 cc d3 3d 01 8c f2 3c
       0.21789129 -0.061346374 0.1034165 0.029607775
000160 e4 6a a5 3e 45 2f 42 3e 6d b2 8d bd 49 84 c7 3e
       0.32308114 0.18963344 -0.06918798 0.38968113
000170 37 48 31 3e 0e de 57 3e 69 b5 a6 3e 74 1c 79 be
       0.17312704 0.21080801 0.3256028 -0.2432726
000180 cf 8e 52 3e b3 dd bf 3e f0 c6 03 3e 94 6c 3a 3e
       0.2056229 0.3747383 0.12868857 0.18205482
000190 35 50 a7 be ff aa 92 3e 68 1d d7 bd 32 3c f2 bd
       -0.3267838 0.28646085 -0.10503656 -0.118278876
0001a0 6f ce 8d 3e 42 9c 42 bc 7b 4a a0 3e bb c8 a7 3d
       0.2769656 -0.011878075 0.31306824 0.08192583
0001b0 ef e6 01 bf 55 05 3c 3d b5 44 57 3e 4c 33 f4 bd
       -0.50743 0.045903523 0.21022303 -0.119238466
0001c0 ef da 4a 3e a4 ad 28 be 35 b9 95 bd 0a 35 db be
       0.19810079 -0.16472489 -0.07310716 -0.42813903
0001d0 36 70 a3 be 90 35 8c 3e 46 6e 54 bd cf 7a 01 be
       -0.31921548 0.27384615 -0.051862977 -0.12644504
0001e0 10 29 71 3e 6b 7c cb 3c 34 b3 c1 bd 23 3e 45 3d
       0.2355082 0.0248396 -0.094580084 0.04815496
0001f0 fd b7 87 be 55 ce 4b 3c 90 84 90 3d 79 63 9e 3e
       -0.2650756 0.01243933 0.07056534 0.30935267
000200 06 4c df bd d4 e0 22 3e 6b ac 2d 3e 8e a7 91 3e
       -0.10903172 0.15906078 0.16960303 0.28448147
000210 f0 d9 2e 3e 5a 44 13 bd fe 10 93 3e 5f 3c 2b bd
       0.17075324 -0.035953857 0.28723902 -0.04180562
000220 98 19 a7 bd 9d 45 c7 3c 55 27 40 be 68 41 01 be
       -0.081591785 0.024325186 -0.18765004 -0.12622607
000230 b5 c1 68 3d e4 05 f7 3d 49 96 47 bd db a2 ac 3e
       0.05682536 0.120616704 -0.048727307 0.33718
000240 cd 4f 94 bd 3b 1e 1c 3e 8d 0e 45 3e 09 a5 f0 bc
       -0.07241783 0.15245907 0.19243832 -0.02937557
000250 a4 16 7b 3e dd e3 2b bd fa f5 04 3d 1b 46 14 be
       0.24520355 -0.041965354 0.032461144 -0.14479868
000260 84 be 9e bd bc 49 1e be 7e d4 7c be 04 f6 71 bc
       -0.07751182 -0.15457815 -0.24690434 -0.014768127
000270 be c2 4b bd e5 50 0b 3d 6d d5 22 3e 36 8a 64 be
       -0.049746267 0.034012694 0.15901728 -0.22318348
000280 55 09 16 bc b0 52 08 be d5 b6 07 3e e0 64 06 be
       -0.009157498 -0.13312793 0.13253339 -0.13124418
000290 07 0b 03 3d 52 84 a1 ba a2 96 0a 3d 1b bf 09 be
       0.03199294 -0.001232276 0.03383506 -0.13451807
0002a0 3d 82 0c bd 76 e5 ae bc 65 e4 7c 3e 84 b4 62 be
       -0.034303892 -0.02134965 0.246965 -0.22139174
0002b0 86 2c 18 bd dd 37 7c bd 87 9e 31 be 77 ab 8b 3e
       -0.037151836 -0.061576713 -0.1734563 0.27279255
0002c0 59 d7 3d be 76 9b e8 bd 8f 9f 67 3e c2 49 cd bd
       -0.1853918 -0.11357777 0.2261946 -0.10023834
0002d0 d0 6a 07 bd fa cc 4c 3b c1 b2 59 be 16 f0 30 3e
       -0.03306085 0.0031250105 -0.21259595 0.17279086
0002e0 5c 37 99 3e 75 6a 2f be e5 42 d4 3c 98 14 d6 3d
       0.29925048 -0.17130454 0.025910804 0.10453147
0002f0 91 71 19 bd 49 a5 bd bd 3f ad 9b bd 4f 57 fe bd
       -0.03746182 -0.09260041 -0.076014034 -0.124189965
000300 b1 95 47 3e c7 67 47 3e a2 55 6e 3e ed 04 8d 3c
       0.19490696 0.19473182 0.23274854 0.017214263
000310 c3 a1 3d 3c e2 a0 7d 3e f6 ec 0f be af db 8c 3e
       0.0115742115 0.24768403 -0.14055237 0.27511355
000320 91 fe 61 3e d1 1d 94 3e 87 1e 5e 3d 22 6f 12 bf
       0.22069766 0.28928998 0.054228332 -0.57200825
000330 9e 99 01 bd da 2e 1a 3e 3d bd 89 3e 7f 5a e5 bc
       -0.03164064 0.15056935 0.2690219 -0.027997253
000340 36 e4 c9 3d 48 2b 27 be 74 e3 8a bd 07 de 10 3e
       0.09857981 -0.16325104 -0.067816645 0.14147197
000350 71 89 74 3d 0f 55 ef bb 52 58 29 bd a9 02 3a 3e
       0.059701387 -0.007303841 -0.041343994 0.18165077
000360 5d f9 88 3e 93 57 1d bd 22 b5 68 3e 1a cc dc bc
       0.2675275 -0.038413595 0.22725347 -0.026952792
000370 9b d2 a9 3e 9e f5 88 3e 06 56 bd 3e 24 7a 0f 3e
       0.33168492 0.2674989 0.36979693 0.14011437
000380 0e e2 09 bd 58 8b 70 3e 91 b2 8a 3e bb b1 19 be
       -0.03366285 0.23490655 0.2708936 -0.15009205
000390 1c 96 39 bd 08 30 53 3e ee 78 df 3c ba 39 92 bd
       -0.04530917 0.20623791 0.027279343 -0.07139917
0003a0 74 90 98 be 71 ef 0c 3e d1 3d 8b be 97 4e 7e bd
       -0.2979771 0.13763215 -0.271956 -0.062086668
0003b0 02 63 d1 bc 2d 2b f0 bc a4 da 99 3e 4b 32 5c bc
       -0.025559906 -0.029317463 0.30049622 -0.013439725
0003c0 9b 89 57 be 61 39 96 3e 6c 48 76 3c 01 3d 26 3d
       -0.21048586 0.29340652 0.015031915 0.04058552
0003d0 8d 22 39 3e 0c 21 14 3e c6 5c 91 3d 3e 3c 18 be
       0.18079586 0.14465731 0.07097773 -0.1486673
0003e0 b7 d3 05 be ce f4 9f bd b3 eb 94 3e e1 a4 7a bc
       -0.13069044 -0.07810365 0.29086074 -0.015298099
0003f0 e0 f8 90 bd cd 0c 7d 3e f6 fd 48 3e 0f 8b 10 3e
       -0.07078719 0.24711914 0.19628128 0.14115547

network.4.weight f4 [4, 256]
000000 4e 78 ed bf ac cd 2f bf bd 83 95 bf 58 b9 8b 3f
       -1.8552339 -0.68673205 -1.1680828 1.0915937
000010 68 f0 59 bd 59 95 8f 3e dd 06 b8 3e 96 99 fb be
       -0.053207785 0.2804363 0.35942736 -0.49140614
000020 95 e2 7f 3b ec 5b b7 3e 9e 1c bb 3e f4 ad 1f 3d
       0.0039044966 0.35812318 0.3654527 0.038984254
000030 6a f7 e8 bf 92 95 6b bf de 24 29 3f 05 fe 53 3d
       -1.8200505 -0.920251 0.6607188 0.051755924
000040 b9 f0 5e bf 83 ba c7 3f 06 16 73 3f 42 ba 8f 3f
       -0.87086064 1.5603794 0.9495548 1.1228716
000050 eb 46 0e 3e d0 74 97 3e b5 8a 74 bf 0e 7f 15 bd
       0.1389424 0.29581308 -0.9552415 -0.036498122
000060 e7 45 e0 be d4 64 8e 3e 5e e4 31 bf a4 52 eb bc
       -0.4380333 0.278113 -0.69489086 -0.02872593
000070 ea 58 32 3f a8 b3 92 bd 98 96 ac be 1b 69 0a bf
       0.6966692 -0.07163173 -0.33708644 -0.5406663
000080 da 1d 92 bf 87 04 46 3d a2 cd 3b 3d 7f 53 cf 3c
       -1.141536 0.04834416 0.045850404 0.025308369
000090 39 2f 08 be 81 95 4e bb 11 88 1b 3e 59 1c f6 3b
       -0.13299264 -0.0031522217 0.15188624 0.0075107035
0000a0 55 77 f6 3e b9 86 4d 3f d1 5c ea bd 3a ac a9 3f
       0.48137918 0.80283695 -0.114434846 1.3255684
0000b0 85 55 15 3f 80 fc 7b bf b5 83 5f 39 28 2d 8f bc
       0.5833362 -0.9843216 0.00021316002 -0.017477587
0000c0 87 43 e5 be 5a 0a 5f 3d 19 53 c2 bf 95 05 c4 3c
       -0.44778082 0.05445323 -1.5181609 0.023928443
0000d0 83 aa 11 3f cb 88 ab 3e b4 0c bd be 86 a7 11 3d
       0.56900805 0.33502802 -0.36923754 0.035560153
0000e0 4a f3 8f bf 24 86 00 c0 3e 49 27 3f 08 59 81 3d
       -1.1246121 -2.0081873 0.65346134 0.063158095
0000f0 70 32 4c 3f b5 c0 3a bd 71 18 84 bf 2d 0e ad be
       0.7976446 -0.045593936 -1.0319959 -0.33799878
000100 5a a8 d0 bf 50 8d e4 3e 54 dc 55 bf b1 0e 49 3f
       -1.6301377 0.44639063 -0.8353932 0.7853804
000110 cd c3 d2 be 34 21 c6 bf 56 b1 41 3e e8 b5 a8 3c
       -0.4116501 -1.5478883 0.18915305 0.020594552
000120 63 1b 16 3f f3 95 65 3f 0d 5c 13 3f 2a e6 d2 3e
       0.5863554 0.8968193 0.57562333 0.41191226
000130 7d 03 d5 3e d2 bc 89 bf d9 2a 01 3e 2e 01 37 3f
       0.41604224 -1.0760748 0.12614001 0.71486175
000140 5a 4f d1 bf fe 1a ea be a6 39 25 bf 8c 34 48 bf
       -1.6352341 -0.45723718 -0.6454109 -0.7820518
000150 aa 0e 26 3f 74 72 42 bf 84 c4 78 3f 77 17 52 bc
       0.64866126 -0.7595589 0.9717486 -0.012822977
000160 ea 8d 79 3f 9e a1 0b bf 5b b3 59 bd ae 81 f6 be
       0.9748217 -0.54543483 -0.053149562 -0.48145813
000170 73 b6 6c bf 95 dd 77 3f f5 bc 2a bf a3 d1 87 3e
       -0.92465895 0.9682248 -0.66694576 0.26527128
000180 0c 03 08 3f 4e 62 33 bf 68 71 2e 3f b4 42 42 3f
       0.5312965 -0.70071876 0.68141794 0.7588303
000190 00 6c 93 3f 7a c9 0d bf 0b 86 d4 bf d3 02 d2 bf
       1.1517334 -0.55385554 -1.6603407 -1.6407112
0001a0 0e 47 06 3f 84 f9 3d 3d 3d 15 3c bf e4 14 43 bf
       0.5245217 0.046380535 -0.7346991 -0.7620375
0001b0 1a 06 06 40 60 b1 93 bf 51 10 09 bf b6 f6 aa bf
       2.0941224 -1.1538506 -0.5354052 -1.335654
0001c0 48 9b 13 3f 23 1d bb bf 2b 56 0b 3d c7 57 0b 3f
       0.57658815 -1.4618267 0.034017723 0.5443081
0001d0 06 9f c0 bf 16 11 f8 be 5b 81 f7 bf ec 61 c5 bf
       -1.504853 -0.48450536 -1.9336351 -1.5420508
0001e0 96 ba 10 bf 21 34 1a 3d 17 a8 70 3e 11 78 6b 3b
       -0.5653471 0.03764737 0.23501621 0.003592972
0001f0 6f ee b2 3e 49 ed ed bf d3 b0 61 bf 53 d0 34 bf
       0.34947535 -1.8588039 -0.8816044 -0.7063038
000200 25 85 6b 3f 27 73 3e 3f 5d 3b 5d bf 75 4a 0f 3f
       0.9200004 0.7439446 -0.86418706 0.5597299
000210 65 e5 e6 be 05 89 c4 bf 12 70 b1 be 33 8a 14 3d
       -0.4509689 -1.5354315 -0.34655815 0.03626461
000220 8d b1 54 3c e0 06 e8 bc df 40 a8 bf 6f 97 ac bf
       0.0129817845 -0.02832359 -1.3144797 -1.3483714
000230 5b 58 27 bc 7d 8b 16 bf 90 08 ab bf 38 dd 07 bf
       -0.010213937 -0.5880659 -1.3361988 -0.5307193
000240 6b e4 1f 3d e6 d9 26 3f 48 a7 10 3f 69 8d de 3d
       0.039036196 0.65176237 0.5650525 0.108668156
000250 ce ba 29 bf 86 e5 b9 3e 61 b2 eb 3e 92 19 06 3f
       -0.66300666 0.36307925 0.4603453 0.5238277
000260 b8 fc 0f 3f 89 c2 b0 bf 21 76 c1 bf a3 34 1d 3f
       0.56244993 -1.3809367 -1.5114175 0.6140844
000270 97 16 8c be a9 08 80 3c 1d 15 0e bf 5e 83 82 bf
       -0.27360985 0.01562913 -0.55500966 -1.019634
000280 bc ae e3 bf 5b 2c 65 bf 00 5e c8 be f7 c9 68 bf
       -1.77877 -0.89520806 -0.39134216 -0.90933174
000290 a8 63 48 3c ed f2 b7 3d b1 bf 30 3e 35 2d 20 3f
       0.012230791 0.08981881 0.17260624 0.6256898
0002a0 4e 00 38 bf da 80 91 bf a9 d2 1f 3f 65 67 0d 3e
       -0.71875465 -1.1367447 0.62430817 0.13808973
0002b0 d1 08 73 bf 91 6e 60 3d 8d d7 73 bf c1 f1 e7 be
       -0.9493533 0.054792944 -0.9525078 -0.4530163
0002c0 12 eb a1 bf dd 79 bc bf cc 6e 14 bf 33 7c 31 bf
       -1.2649863 -1.472469 -0.5798156 -0.6933014
0002d0 7a 9a 12 bf 74 39 42 3f 88 c9 a7 bf 17 76 f2 3e
       -0.5726696 0.75868917 -1.3108377 0.4735572
0002e0 5c f1 92 3f 87 20 06 c0 9e e8 66 3d 3c c1 7b bf
       1.1479907 -2.0957353 0.056374185 -0.9834173
0002f0 14 15 b0 3c 8a 32 21 bf ad 08 f4 bf 07 e0 9a be
       0.021494426 -0.6296774 -1.9065148 -0.30249044
000300 ba 5a 40 bf 7f de 16 3f 45 96 c6 be 6d ae c6 bb
       -0.7513844 0.5893325 -0.38786522 -0.0060632736
000310 0b 79 ab bf 65 dc 13 bf d5 24 b0 bf a4 96 92 be
       -1.3396314 -0.5775817 -1.376124 -0.28630555
000320 2c 40 17 40 27 03 d1 be 82 8e 4d bf 73 09 f6 3f
       2.3632917 -0.40822718 -0.80295575 1.9221634
000330 e1 24 3b 3d 98 4f b1 3d 73 c2 0e bf 0a 0d 2f 3f
       0.045689467 0.086577594 -0.55765456 0.6837927
000340 72 ba ad bf b7 e6 05 3f d8 a9 66 3d 85 bb 1e 3f
       -1.3572524 0.5230517 0.05631432 0.6200488
000350 8e d6 b3 3f 81 23 58 3f 98 a6 82 bf 2a 41 1e 3f
       1.4049852 0.84429175 -1.020709 0.6181818
000360 b4 a9 0e bf 70 b9 5c 3d d6 57 ff 3e ac 6a 5e 3d
       -0.55727696 0.053887784 0.498717 0.05430095
000370 3f 38 c3 be 88 4a 2c bf ae 3f 1f bf 98 ea bc 3f
       -0.3812885 -0.67301226 -0.6220654 1.4759092
000380 e0 c7 a0 3b c7 58 0a bf d8 19 05 bf 99 34 09 3f
       0.0049066395 -0.54041713 -0.5199256 0.5359588
000390 56 81 2c bf e6 eb d1 be 4d 8c 52 bf 36 b0 d2 bf
       -0.6738485 -0.4100029 -0.8224533 -1.6460025
0003a0 c0 9d 9b 3e 6d 9f 9a 3f 72 a8 c9 bf c5 8d e8 be
       0.3039379 1.2079903 -1.575453 -0.45420662
0003b0 22 ce 20 3d cb 41 7c 3f 91 3c 7a 3f 49 54 ca 3c
       0.039259084 0.9853789 0.97748667 0.024698393
0003c0 5f cf 82 bf d0 89 11 bf 3b 54 aa bf ec 84 42 3c
       -1.0219535 -0.5685091 -1.3306955 0.011872511
0003d0 1e 0c 13 bf 39 80 03 bf ba b0 9b bf 79 dc 12 3f
       -0.57440364 -0.5136753 -1.2163308 0.57367665
0003e0 e4 c0 42 3e 9a ff e8 bf 33 62 0c bf dc ea 0d bd
       0.19018894 -1.8203003 -0.5483734 -0.034647807
0003f0 bf ad af 3f ae 62 e8 be 58 45 21 bf 6c e8 89 bf
       1.3724898 -0.45387787 -0.62996435 -1.0774055

network.4.bias f4 [4]
000000 ff 23 ac bd 31 30 ec bc 9a bd 37 3d e6 d2 12 bb
       -0.08405303 -0.028831573 0.044858553 -0.0022403537

exp_avg f4 [256, 8]
000000 c7 05 f8 be b4 87 42 be 15 84 b3 bf 4f 82 84 3d
       -0.48441908 -0.18997079 -1.4024683 0.06470167
000010 0c da 00 bd 29 94 82 bf 5f 2e 4d 3f 32 f1 3e 3f
       -0.031457946 -1.0201465 0.8014888 0.74586785
000020 be 43 bf be 37 32 b1 bd c2 7e 14 bf 59 88 bf 3d
       -0.3735637 -0.08652156 -0.5800592 0.09352178
000030 8e 84 1f be a0 c5 f6 be 2b 15 8b 3e f4 21 02 3f
       -0.1557791 -0.4819765 0.27164587 0.5083306
000040 ec 4e 08 3f c1 fb 9c 3e 69 ff ea 3f e2 c6 30 bc
       0.53245425 0.30660823 1.8359195 -0.010789605
000050 22 9a b0 3e 78 db c7 3f f1 ba d2 bf 28 25 e7 bf
       0.34492594 1.5613852 -1.64633 -1.8058214
000060 cc 43 96 bd b2 dd 5f 3c f4 73 74 be 68 22 89 bd
       -0.0733715 0.013663696 -0.23872358 -0.066960156
000070 31 fd 2b bd 60 8e f7 bd 81 80 4d 3e b9 b2 7f 3e
       -0.04198951 -0.12087703 0.20068552 0.24970521
000080 32 a2 a3 3e de 2f be 3d 5f b7 8e 3e ba 57 c5 bd
       0.31959683 0.09286474 0.27874276 -0.09635873
000090 d5 a9 ed 3c b9 9f 8d 3d 70 d1 21 3f f7 7a 97 3e
       0.029011646 0.0691523 0.632102 0.29586002
0000a0 13 35 03 be a5 d4 cd bd af 91 2f be e3 57 f0 3d
       -0.12813215 -0.10050324 -0.17145418 0.11735513
0000b0 45 f2 8a bd e9 98 0e be f0 c1 2b 38 88 1e 94 3d
       -0.067844905 -0.13925518 4.0950195e-05 0.07232386
0000c0 a5 93 26 bf d8 82 36 bc 85 b5 b3 bf f8 58 5a 3c
       -0.6506904 -0.011139594 -1.403977 0.013326876
0000d0 03 20 18 be e3 a8 81 bf a3 20 b2 3e 87 61 71 3f
       -0.14855962 -1.0129665 0.34790525 0.9428944
0000e0 b1 95 04 3f 5c 82 e6 3e a5 4b f1 3f e6 ff 3b be
       0.5179091 0.4502133 1.885121 -0.18359336
0000f0 d0 ed 59 3e c8 ca d9 3f 65 93 b9 bf 86 e3 03 c0
       0.21282125 1.7015009 -1.4498106 -2.060762
000100 df 06 43 3e 61 3e dc 3d 65 0a 05 3f fe 7f 08 be
       0.1904559 0.10754085 0.51968986 -0.13330075
000110 63 b8 88 3e ab f4 17 3f 86 da 43 be c6 51 ce be
       0.26703176 0.5935771 -0.19126329 -0.40296763
000120 8f 05 cf 3c 82 49 82 3b bb 62 19 bd 10 38 a0 bc
       0.025271205 0.003976048 -0.037447672 -0.019557983
000130 08 c8 10 3b 5e c0 bd bc 54 a5 a6 3d 3a f8 66 3d
       0.0022091884 -0.023163017 0.081370026 0.05638907
000140 1e 5e 9c 3e c4 a3 a1 3d ef ad 6a 3f dc 06 a6 3d
       0.30540556 0.07892564 0.9167165 0.08106777
000150 7c 5c ad 3e b6 9a 37 3f a6 51 53 bf 06 b6 5c bf
       0.33859622 0.71720445 -0.8254646 -0.86215246
000160 60 40 ec bd ec c2 ab bc 10 8a 67 be 51 1c da 3d
       -0.11535716 -0.02096697 -0.2261126 0.10649932
000170 19 a5 4d be 96 a9 0e be f4 09 a5 be e2 18 76 bd
       -0.20082511 -0.1393188 -0.32234156 -0.060082324
000180 6c 16 4a 3e f7 e8 81 3c 69 7c b4 3e a3 07 c6 3c
       0.19735116 0.015858157 0.35251167 0.024173563
000190 55 3a 03 3e 0b f6 aa 3e 30 8e c4 bd ed 72 4e be
       0.1281522 0.3339084 -0.095974326 -0.20161028
0001a0 ac e3 1d 3f 55 87 ad 3e ca 45 cc 3f 58 80 17 bc
       0.61675525 0.33892313 1.5958798 -0.009246908
0001b0 2d 93 eb 3e 35 e1 bf 3f 36 0d b4 bf 22 de 9d bf
       0.46010724 1.4990603 -1.4066532 -1.2333415
0001c0 96 3c 96 3d 8e a2 32 3c b4 a5 62 3e 81 63 fd 3b
       0.073357746 0.010903014 0.22133523 0.007732809
0001d0 b8 b8 f2 3c 67 16 2d 3e a3 90 7d be eb 7f 87 be
       0.029629096 0.16903077 -0.24762206 -0.2646478
0001e0 b8 4d 52 bf d3 ee c6 bd 76 0c 93 bf 6b 7d b3 bc
       -0.8214984 -0.09713521 -1.1488178 -0.02191039
0001f0 bc fd ca be 58 d3 62 bf b6 95 ff 3e 4e 08 5c 3f
       -0.3964671 -0.88603735 0.49918908 0.8595017
000200 18 35 55 3e a1 04 6b 3d 0c b3 6f 3e 6a f7 4b bd
       0.20821035 0.05737746 0.23408145 -0.0497965
000210 d0 e1 3d 3e c0 46 14 3e d9 36 5c be 86 41 c1 bd
       0.18543172 0.14480114 -0.21505298 -0.09436326
000220 5a c8 4e be 7e d6 c2 bd cd cd fb be 78 f4 f5 3d
       -0.20193616 -0.095135674 -0.4918045 0.12009519
000230 eb b9 d5 ba 00 90 a9 be e8 54 5d 3e 1d d7 e0 3e
       -0.0016306018 -0.33117676 0.2161442 0.43914118
000240 3b dd 19 3d ab fe e4 3d e9 e4 a6 bd 23 c3 61 be
       0.037564497 0.111813866 -0.0814913 -0.22047095
000250 37 6a ba 3d 9f 3a 8f 3d 5e 30 8d 3e 11 0e e3 3d
       0.0910229 0.06993603 0.27575964 0.11086667
000260 39 65 38 3e 40 f4 d4 be 9f a8 ab 3e 9a e7 02 3f
       0.18007363 -0.41592598 0.33527085 0.51134646
000270 7c 2b b2 bd 75 48 8e be 51 12 2b bf 25 8f 47 bd
       -0.086997 -0.27789655 -0.66824824 -0.048720498
000280 f6 7f 98 be 56 4d 98 bd 9f 2c 3d bf 9f bb 33 3d
       -0.29785126 -0.07436626 -0.7389621 0.0438801
000290 7d a5 d0 bd a3 f0 10 bf 03 89 08 be 03 ce cb 3d
       -0.101878144 -0.5661718 -0.13333516 0.09951403
0002a0 9e 10 6d be b7 47 3d bd 7e bd 22 bf 73 ab ff bc
       -0.2315087 -0.04621097 -0.6357039 -0.031209683
0002b0 03 25 00 be d9 fa 0a bf 1c a8 aa 3e 34 66 01 3f
       -0.12514119 -0.54289013 0.33331382 0.50546575
0002c0 46 c5 36 be 2d f8 12 be f8 02 21 3d 67 3a 40 3e
       -0.17848691 -0.14352484 0.03930947 0.18772279
0002d0 54 e8 03 bd 41 b1 3a 3c cb ad 4d 3d 36 70 82 3e
       -0.032203987 0.0113948 0.05021457 0.25476235
0002e0 09 3b fb 3d 4a d6 8f 3d 73 4c 4a 3f 67 5e 5f 3d
       0.122671194 0.07023294 0.790229 0.05453339
0002f0 96 e4 9c 3e df 9c 3b 3f b0 b2 18 bf a6 ef 0b bf
       0.30643147 0.7328624 -0.59647655 -0.5466255
000300 43 83 b2 bd e3 87 ff 3c c3 0f 03 bf f1 23 a2 bd
       -0.087164424 0.031192726 -0.51195925 -0.079170115
000310 1c 3d a3 3e d6 70 d6 bd 85 12 d4 3e e5 90 1a 3f
       0.3188256 -0.104707405 0.4142038 0.6037734
000320 ba 86 54 bf f6 4e b7 bd 62 06 0c c0 00 27 cc be
       -0.83018076 -0.089506075 -2.1878896 -0.39873505
000330 d4 61 9f bd a0 d2 ca bf db a3 a6 3f dd ff 0b 40
       -0.07782331 -1.5845528 1.3018755 2.1874917
000340 56 af 25 bb 25 d4 bf 3c 72 90 df bd f3 27 e9 bd
       -0.002528151 0.023416588 -0.10916223 -0.11384573
000350 39 ab 06 3f cf dd 95 3f d0 ae be 3e 66 77 18 3f
       0.52605015 1.1708316 0.37242746 0.5955719
000360 59 be 29 3d 9c 79 21 3d b9 4b 81 bd 9f ec 8f bd
       0.041441295 0.039422616 -0.06313271 -0.07027554
000370 64 4d 12 3c a3 35 16 3d f7 3e e0 3d 0b d3 ab 3d
       0.008929584 0.036672246 0.109495096 0.083898626
000380 ac 7f dd be 5b 0c 73 bd 7e e4 71 bf ec ef af bc
       -0.43261468 -0.059337955 -0.94489276 -0.021476708
000390 7b f5 90 be ca 83 58 bf 55 13 16 3f b8 9c 3f 3f
       -0.28312287 -0.84576094 0.5862325 0.7484851
0003a0 59 a9 36 bf 40 b7 4f be aa 7f a9 bf 65 f2 8e 3d
       -0.71352154 -0.20284748 -1.3242085 0.06979827
0003b0 44 f5 2e bf 4f a9 98 bf 45 b7 cf 3e d1 c1 1f 3f
       -0.68342996 -1.1926669 0.4056951 0.62405115
0003c0 b9 ec 04 3e 4b ce d5 3e 24 af e2 3d 12 f7 2e bf
       0.12980928 0.41758952 0.11068562 -0.6834575
0003d0 d9 f7 7d be b4 c4 bb 3c 10 0a e3 3e 58 46 6d 3d
       -0.24801578 0.022920944 0.44343615 0.057928413
0003e0 2e cb 04 bf 3b de 6f be 49 14 9b bf ec 51 ad 3d
       -0.5187253 -0.23424618 -1.2115566 0.08462891
0003f0 0d 90 44 be 75 66 69 bf 68 0f 8d be 4a 47 89 be
       -0.19195576 -0.9117196 -0.27550817 -0.26812202

exp_avg_sq f4 [256, 8]
000000 8d 1e 7d 40 4f e9 96 40 6e 87 29 41 ce 55 87 40
       3.9549897 4.71598 10.595564 4.229224
000010 87 fa 87 40 95 a4 78 41 55 0c a4 42 aa 11 c3 42
       4.249332 15.540181 82.024086 97.5345
000020 ab d7 d9 3f 6f e9 95 3f 4e f7 13 40 3b c7 65 3f
       1.7018942 1.1711863 2.3119693 0.89757127
000030 72 80 99 3f 35 a2 8e 40 36 b3 b2 41 aa ca b1 41
       1.1992323 4.4573007 22.337505 22.223957
000040 76 fc d7 40 3d fc 9a 40 c3 8a 81 41 da 57 bb 40
       6.749568 4.843291 16.192755 5.854474
000050 48 9b 9b 40 25 77 8f 41 93 3e e4 40 f0 c6 58 41
       4.862705 17.933176 7.1326385 13.548569
000060 23 38 53 3e 5c 4c ac 3c 5e a8 f3 3e d9 87 e9 3d
       0.20626883 0.021032505 0.4758939 0.11402864
000070 6e 37 8b 3e f1 6c 2e 3f ba 04 88 3e d5 66 93 3e
       0.27190727 0.6813498 0.26566106 0.28789392
000080 80 62 94 40 3a 3d 6c 40 32 94 dc 40 08 51 31 40
       4.637024 3.691237 6.8930902 2.7705708
000090 47 b0 4d 40 64 66 16 41 92 69 77 42 fc ec 90 42
       3.213884 9.399998 61.853096 72.46286
0000a0 5d 30 83 40 ed f3 fa 3f f0 43 c3 40 66 cb 07 40
       4.0996537 1.960569 6.102043 2.1217895
0000b0 42 9d 52 40 e4 aa 20 41 e8 a9 32 3f 3d 9d b2 40
       3.2908483 10.041721 0.69790506 5.581694
0000c0 27 79 13 41 db 1e cb 3e 8e b3 74 41 82 45 19 40
       9.217078 0.39671978 15.293837 2.3948674
0000d0 ef dc a2 40 86 d6 8c 41 dc 7b 17 43 74 e0 19 43
       5.0894694 17.604748 151.48383 153.87677
0000e0 18 05 a0 40 e4 dd 73 40 b8 cc 37 41 12 f8 27 40
       5.000622 3.8104181 11.48748 2.624516
0000f0 a6 29 8c 40 0f 0e 48 41 a7 52 80 41 55 19 d1 40
       4.380084 12.503432 16.040358 6.5343423
000100 63 bd 0f 40 a8 13 c1 3e b5 47 41 40 72 6b 83 3f
       2.2459342 0.3771031 3.0200016 1.0267165
000110 a1 1d 47 3f 3f ba 86 40 b0 04 86 41 07 07 7e 41
       0.77779585 4.210235 16.752289 15.876716
000120 93 50 a3 3c ef 9b d1 3a 7e 32 c7 3c dd 5e b9 3b
       0.019935882 0.0015991906 0.024316069 0.0056570605
000130 b6 a0 19 3c bd 35 03 3d d6 20 2f 3f 80 df 1c 3f
       0.009376695 0.03203367 0.6840948 0.61278534
000140 0f 11 17 40 12 e5 a7 3e 16 7b a2 40 15 8e dc 3f
       2.3604162 0.32791954 5.077525 1.723086
000150 40 c1 f0 3f 41 28 db 40 98 ec 80 41 42 5e 9c 41
       1.8808975 6.848664 16.115524 19.546024
000160 0b 5c d3 40 ce 2f 2a 40 1b b6 20 41 2e 18 15 40
       6.6049857 2.6591678 10.044459 2.3296008
000170 06 52 6a 40 ca 0c 42 41 19 10 92 40 6d 2d 5f 41
       3.6612563 12.128122 4.564465 13.94859
000180 f6 22 06 3f da 9e cc 3c 47 b4 33 3f 0e 14 1c 3e
       0.52397096 0.02497809 0.70196956 0.15242025
000190 f6 23 90 3e fd 5a 9c 3f 78 05 0d 41 c0 7b 0d 41
       0.28152436 1.2215267 8.813835 8.842712
0001a0 80 ab 05 41 5f a7 89 3f fb d4 38 41 6d d1 7a 40
       8.35437 1.0754203 11.551997 3.9190323
0001b0 1c fe 9b 40 b4 88 a8 41 8f f3 1f 43 7e c3 34 43
       4.874769 21.06675 159.9514 180.76364
0001c0 3b 29 b5 3d 27 5d bf 3b 83 70 79 3e e6 a1 96 3d
       0.08845755 0.005839962 0.24359326 0.073550984
0001d0 ac b9 15 3e e4 44 c3 3e c1 e8 4e 3f 3f 3d 3b 3f
       0.1462161 0.38138497 0.80823904 0.7314033
0001e0 e0 41 c8 40 63 87 75 3f 33 a0 12 41 1b 9d 2e 40
       6.2580414 0.9590971 9.164111 2.728339
0001f0 cd 4e 78 40 e7 58 76 41 31 c6 99 42 f4 c6 a2 42
       3.8798096 15.396705 76.88709 81.38858
000200 8b 8a 4b 3f 11 8a 9e 3e 80 ba ae 3f 8a e9 d7 3e
       0.79508275 0.3096471 1.3650665 0.42170364
000210 94 b5 13 3f 5f 38 ef 3f fc ba 89 41 f2 0c 82 41
       0.5769894 1.8689078 17.216301 16.25632
000220 31 e1 91 3f 85 13 25 3f 18 11 e5 3f e7 c3 04 3f
       1.1396848 0.6448291 1.7895842 0.51861423
000230 8b 19 29 3f 64 e8 00 40 4d 2c f7 40 7c 80 f4 40
       0.660546 2.014184 7.724158 7.640684
000240 0b ad 97 3f 38 8a 6d 3f 19 c9 b5 3f 9b 71 34 3f
       1.1849684 0.9278903 1.4201995 0.7048585
000250 fb 2f 00 3f 78 0f 0e 40 0b f5 e8 41 d8 24 d3 41
       0.5007321 2.2196941 29.11965 26.39299
000260 d0 ff 45 40 10 7f d2 40 ee d4 5b 40 84 81 54 40
       3.0937386 6.5780106 3.4348712 3.320405
000270 eb e5 e5 3f 9f b4 f0 40 a3 48 9e 40 f6 84 5d 40
       1.796079 7.5220485 4.946367 3.4612403
000280 f8 b8 b7 3f bf 81 6d 3f 31 41 18 40 10 92 4e 3f
       1.4353323 0.927761 2.378979 0.80691624
000290 e7 d0 60 3f 9c 5b 2c 40 3b db 3b 41 bb 6d 48 41
       0.8781876 2.6930914 11.741023 12.52679
0002a0 b3 3c 78 3f 7e a5 c9 3e 70 63 d1 3f 6b 7b dc 3e
       0.9696762 0.39384073 1.6358471 0.4306291
0002b0 db 42 1e 3f 4e cd fe 3f 57 39 c4 40 00 12 ca 40
       0.61820763 1.9906404 6.1319995 6.3146973
0002c0 ee 5c aa 3f 15 9c 83 3f bf be 77 3f b0 f3 13 3f
       1.330961 1.0282007 0.9677543 0.5779371
0002d0 d0 06 18 3f 28 5c c4 3f c7 f7 99 41 30 20 a1 41
       0.59385395 1.5340624 19.245985 20.140717
0002e0 4c 92 2e 3f f2 f4 f0 3e 3f aa 28 40 02 9f 9e 3f
       0.6819198 0.47061878 2.635391 1.2392275
0002f0 0c fb 56 3f 63 b4 9a 40 12 c5 10 40 30 2c a1 40
       0.8397682 4.83452 2.2620282 5.036644
000300 60 54 13 41 49 d1 8e 3e 07 bb 68 41 04 c1 16 40
       9.208099 0.27894047 14.545661 2.3555307
000310 94 dc 21 41 6e 6d 66 41 05 9f c2 3e 5b a4 75 40
       10.116352 14.401716 0.38011947 3.8381565
000320 9a bb 14 41 d3 ce f2 3e cf 0f a6 41 54 78 26 40
       9.295801 0.4742342 20.757719 2.6010942
000330 38 2a f1 40 94 07 9b 41 dd 73 0d 43 3c 2a ff 42
       7.5364037 19.3787 141.45259 127.58249
000340 43 11 5b 41 06 bb 62 3f 52 01 e5 41 24 65 09 40
       13.691714 0.88566625 28.625645 2.1467981
000350 4a 6a 6b 41 bc 8f 64 42 ba bb 96 40 cf 6d 84 41
       14.7134495 57.140366 4.710416 16.553617
000360 ad b4 97 3d 1c b0 b4 3c 71 e9 4e 3e 90 61 61 3d
       0.07407508 0.022056632 0.20206238 0.055024683
000370 c7 72 b8 3d 1d c3 49 3e 7f 2d 03 40 c8 f3 03 40
       0.09006267 0.19703336 2.0496519 2.0617542
000380 db d4 4c 40 93 96 bb 3f 63 df a4 40 04 82 b0 3f
       3.2004917 1.4655327 5.152269 1.3789678
000390 aa 31 d1 3f 32 28 cd 40 83 27 a7 41 ec a5 b7 41
       1.6343281 6.4111567 20.894293 22.956017
0003a0 37 1a 24 41 c4 57 9d 40 4a b8 44 41 1a 80 9f 40
       10.2564 4.9169636 12.294992 4.9843874
0003b0 21 18 a6 40 08 6f 96 41 02 e7 68 42 82 29 52 42
       5.1904454 18.804214 58.225594 52.540535
0003c0 88 ef 92 40 40 9e 00 41 49 25 d6 40 f7 5f 7f 40
       4.5917397 8.038635 6.6920514 3.9902322
0003d0 9e ac 41 40 77 ab d7 40 ce 97 d8 40 05 bd 71 3f
       3.0261607 6.739681 6.768531 0.94429046
0003e0 1f b4 63 40 ff d0 86 40 40 6d 08 41 91 93 64 40
       3.5578687 4.213012 8.526672 3.5715067
0003f0 03 dc 23 40 53 c6 0f 41 ec bc 59 42 df 65 81 42
       2.5603034 8.985919 54.434494 64.69897
